…
            "Downloading https://ultralytics.com/assets/Arial.ttf to '/root/.config/yolov12/Arial.ttf'...\n"
          ]
        },
        {
          "output_type": "stream",
          "name": "stderr",
          "text": [
            "100%|â–ˆâ–ˆâ–ˆâ–ˆâ–ˆâ–ˆâ–ˆâ–ˆâ–ˆâ–ˆ| 755k/755k [00:00<00:00, 20.3MB/s]\n"
          ]
        },
        {
          "output_type": "stream",
          "name": "stdout",
          "text": [
            "Overriding model.yaml nc=80 with nc=6\n",
            "\n",
            "                   from  n    params  module                                       arguments                     \n",
            "  0                  -1  1       928  ultralytics.nn.modules.conv.Conv             [3, 32, 3, 2]                 \n",
            "  1                  -1  1      9344  ultralytics.nn.modules.conv.Conv             [32, 64, 3, 2, 1, 2]          \n",
            "  2                  -1  1     26080  ultralytics.nn.modules.block.C3k2            [64, 128, 1, False, 0.25]     \n",
            "  3                  -1  1     37120  ultralytics.nn.modules.conv.Conv             [128, 128, 3, 2, 1, 4]        \n",
            "  4                  -1  1    103360  ultralytics.nn.modules.block.C3k2            [128, 256, 1, False, 0.25]    \n",
            "  5                  -1  1    590336  ultralytics.nn.modules.conv.Conv             [256, 256, 3, 2]              \n",
            "  6                  -1  2    677120  ultralytics.nn.modules.block.A2C2f           [256, 256, 2, True, 4]        \n",
            "  7                  -1  1   1180672  ultralytics.nn.modules.conv.Conv             [256, 512, 3, 2]              \n",
            "  8                  -1  2   2664960  ultralytics.nn.modules.block.A2C2f           [512, 512, 2, True, 1]        \n",
            "  9                  -1  1         0  torch.nn.modules.upsampling.Upsample         [None, 2, 'nearest']          \n",
            " 10             [-1, 6]  1         0  ultralytics.nn.modules.conv.Concat           [1]                           \n",
            " 11                  -1  1    345856  ultralytics.nn.modules.block.A2C2f           [768, 256, 1, False, -1]      \n",
            " 12                  -1  1         0  torch.nn.modules.upsampling.Upsample         [None, 2, 'nearest']          \n",
            " 13             [-1, 4]  1         0  ultralytics.nn.modules.conv.Concat           [1]                           \n",
            " 14                  -1  1     95104  ultralytics.nn.modules.block.A2C2f           [512, 128, 1, False, -1]      \n",
            " 15                  -1  1    147712  ultralytics.nn.modules.conv.Conv             [128, 128, 3, 2]              \n",
            " 16            [-1, 11]  1         0  ultralytics.nn.modules.conv.Concat           [1]                           \n",
            " 17                  -1  1    296704  ultralytics.nn.modules.block.A2C2f           [384, 256, 1, False, -1]      \n",
            " 18                  -1  1    590336  ultralytics.nn.modules.conv.Conv             [256, 256, 3, 2]              \n",
            " 19             [-1, 8]  1         0  ultralytics.nn.modules.conv.Concat           [1]                           \n",
            " 20                  -1  1   1511424  ultralytics.nn.modules.block.C3k2            [768, 512, 1, True]           \n",
            " 21        [14, 17, 20]  1    821730  ultralytics.nn.modules.head.Detect           [6, [128, 256, 512]]          \n",
            "YOLOv12s summary: 497 layers, 9,098,786 parameters, 9,098,770 gradients, 19.6 GFLOPs\n",
            "\n",
            "\u001b[34m\u001b[1mTensorBoard: \u001b[0mStart with 'tensorboard --logdir runs/detect/train', view at http://localhost:6006/\n",
            "Freezing layer 'model.21.dfl.conv.weight'\n",
            "\u001b[34m\u001b[1mAMP: \u001b[0mrunning Automatic Mixed Precision (AMP) checks...\n",
…
=1.0, nbs=64, hsv_h=0.015, hsv_s=0.7, hsv_v=0.4, degrees=0.0, translate=0.1, scale=0.5, shear=0.0, perspective=0.0, flipud=0.0, fliplr=0.5, bgr=0.0, mosaic=1.0, mixup=0.0, copy_paste=0.1, copy_paste_mode=flip, auto_augment=randaugment, erasing=0.4, crop_fraction=1.0, cfg=None, tracker=botsort.yaml, save_dir=runs/detect/train3\n",
            "Overriding model.yaml nc=80 with nc=11\n",
            "\n",
            "                   from  n    params  module                                       arguments                     \n",
            "  0                  -1  1       928  ultralytics.nn.modules.conv.Conv             [3, 32, 3, 2]                 \n",
            "  1                  -1  1      9344  ultralytics.nn.modules.conv.Conv             [32, 64, 3, 2, 1, 2]          \n",
            "  2                  -1  1     26080  ultralytics.nn.modules.block.C3k2            [64, 128, 1, False, 0.25]     \n",
            "  3                  -1  1     37120  ultralytics.nn.modules.conv.Conv             [128, 128, 3, 2, 1, 4]        \n",
            "  4                  -1  1    103360  ultralytics.nn.modules.block.C3k2            [128, 256, 1, False, 0.25]    \n",
            "  5                  -1  1    590336  ultralytics.nn.modules.conv.Conv             [256, 256, 3, 2]              \n",
            "  6                  -1  2    677120  ultralytics.nn.modules.block.A2C2f           [256, 256, 2, True, 4]        \n",
            "  7                  -1  1   1180672  ultralytics.nn.modules.conv.Conv             [256, 512, 3, 2]              \n",
            "  8                  -1  2   2664960  ultralytics.nn.modules.block.A2C2f           [512, 512, 2, True, 1]        \n",
            "  9                  -1  1         0  torch.nn.modules.upsampling.Upsample         [None, 2, 'nearest']          \n",
            " 10             [-1, 6]  1         0  ultralytics.nn.modules.conv.Concat           [1]                           \n",
            " 11                  -1  1    345856  ultralytics.nn.modules.block.A2C2f           [768, 256, 1, False, -1]      \n",
            " 12                  -1  1         0  torch.nn.modules.upsampling.Upsample         [None, 2, 'nearest']          \n",
            " 13             [-1, 4]  1         0  ultralytics.nn.modules.conv.Concat           [1]                           \n",
            " 14                  -1  1     95104  ultralytics.nn.modules.block.A2C2f           [512, 128, 1, False, -1]      \n",
            " 15                  -1  1    147712  ultralytics.nn.modules.conv.Conv             [128, 128, 3, 2]              \n",
            " 16            [-1, 11]  1         0  ultralytics.nn.modules.conv.Concat           [1]                           \n",
            " 17                  -1  1    296704  ultralytics.nn.modules.block.A2C2f           [384, 256, 1, False, -1]      \n",
            " 18                  -1  1    590336  ultralytics.nn.modules.conv.Conv             [256, 256, 3, 2]              \n",
            " 19             [-1, 8]  1         0  ultralytics.nn.modules.conv.Concat           [1]                           \n",
            " 20                  -1  1   1511424  ultralytics.nn.modules.block.C3k2            [768, 512, 1, True]           \n",
            " 21        [14, 17, 20]  1    823665  ultralytics.nn.modules.head.Detect           [11, [128, 256, 512]]         \n",
            "YOLOv12s summary: 497 layers, 9,100,721 parameters, 9,100,705 gradients, 19.6 GFLOPs\n",
            "\n",
            "\u001b[34m\u001b[1mTensorBoard: \u001b[0mStart with 'tensorboard --logdir runs/detect/train3', view at http://localhost:6006/\n",
            "Freezing layer 'model.21.dfl.conv.weight'\n",
            "\u001b[34m\u001b[1mAMP: \u001b[0mrunning Automatic Mixed Precision (AMP) checks...\n",
…
